BuildNetwork/Batchnormal.pth (torch, 2263 bytes, 5 tensors)

fc1.weight f4 [3, 3]
000000 2b 69 80 bd 0a 0c f6 3e 26 12 df 3c cd 98 07 3f
       -0.06270059 0.4805606 0.027230334 0.5296753
000010 8c 4b 13 bf 53 55 19 be 5a 6e b8 be ac 80 92 3c
       -0.5753715 -0.14973955 -0.36021692 0.017883621
000020 6f bd 03 bf
       -0.5146093

bn.weight f4 [3]
000000 00 00 80 3f 00 00 80 3f 00 00 80 3f
       1.0 1.0 1.0

bn.bias f4 [3]
000000 00 00 00 00 00 00 00 00 00 00 00 00
       0.0 0.0 0.0

bn.running_mean f4 [3]
000000 00 00 00 00 00 00 00 00 00 00 00 00
       0.0 0.0 0.0

bn.running_var f4 [3]
000000 00 00 80 3f 00 00 80 3f 00 00 80 3f
       1.0 1.0 1.0
