BuildNetwork/Batchnormal.pth (torch, 2515 bytes, 6 tensors)

fc1.weight f4 [3, 3]
000000 9c a3 ab 3e b2 15 8a be 4b 7b b4 be c1 d8 29 be
       0.33523262 -0.26969677 -0.35250315 -0.16586591
000010 67 8e 0f 3e 2f 46 e5 bd c9 76 90 be 98 59 92 bd
       0.14019166 -0.11195027 -0.28215626 -0.07145995
000020 94 e5 00 bf
       -0.5035031

fc1.bias f4 [3]
000000 2b 93 14 be 17 8b 8e be a6 1a c9 bd
       -0.14509265 -0.27840492 -0.09819536

bn.weight f4 [3]
000000 00 00 80 3f 00 00 80 3f 00 00 80 3f
       1.0 1.0 1.0

bn.bias f4 [3]
000000 00 00 00 00 00 00 00 00 00 00 00 00
       0.0 0.0 0.0

bn.running_mean f4 [3]
000000 00 00 00 00 00 00 00 00 00 00 00 00
       0.0 0.0 0.0

bn.running_var f4 [3]
000000 00 00 80 3f 00 00 80 3f 00 00 80 3f
       1.0 1.0 1.0
